…
[3:00:49<23:55,  4.26s/it]Epoch num:              25
Learning rate:          0.0005
Weight decay:           1.28e-05
Context window:         5
Document window:        100
Title window:           17
Body window:            100
Filter number:          64
Filter window:          3
Embedding dim:          300
Lambda:                 0.5
Is finetune embedding:  True
Gama:                   0.1
Data root:              ../data
#######Data loading#######
Train data size: 936
Dev data size: 216
Test data size: 973
#######Model Initialization#######
Fai_score(
  (softmax_layer): Softmax()
  (layer_local): Linear(in_features=6, out_features=1, bias=True)
  (layer_sensefeat): Linear(in_features=623, out_features=1, bias=True)
  (layer_local_combine1): Linear(in_features=624, out_features=1, bias=True)
  (cos_layer): CosineSimilarity()
  (relu_layer): ReLU(inplace)
  (char_emb): Embedding(5053, 300, padding_idx=1)
  (char_conv): Sequential(
    (0): Conv2d(1, 200, kernel_size=[300, 5], stride=(1, 1))
    (1): ReLU()
  )
  (context_LSTM): LSTM(
    (rnn): LSTM(200, 100, batch_first=True)
    (dropout): Dropout(p=0.2)
  )
  (att_weight_c): Linear(
    (linear): Linear(in_features=100, out_features=1, bias=True)
  )
  (att_weight_q): Linear(
    (linear): Linear(in_features=100, out_features=1, bias=True)
  )
  (att_weight_cq): Linear(
    (linear): Linear(in_features=100, out_features=1, bias=True)
  )
  (linear_z): Linear(
    (linear): Linear(in_features=400, out_features=1, bias=True)
  )
  (p1_weight): Linear(
    (linear): Linear(in_features=1, out_features=1, bias=True)
    (dropout): Dropout(p=0.2)
  )
  (p2_weight): Linear(
    (linear): Linear(in_features=1, out_features=1, bias=True)
    (dropout): Dropout(p=0.2)
  )
  (dropout): Dropout(p=0.2)
)
#######Training...#######
****************epoch 1...****************
#######Evaluate val#######
time:558.544304
#######Evaluate val#######
total_men:31
|||actual_men:30|||correct:24
time:1391.608952|||epoch:1|||step:200|||loss:134.3379364013672|||acc:0.8595274225016258
eval_mi_prec:0.8595274225016258|||eval_mi_rec:0.8275934042997286|||eval_mi_f1:0.8432581880051042
…
